dexteroushandenvs/traj_e/model.pt (torch, 785743 bytes, 8 tensors)

linear1.weight f4 [512, 60]
0	0xbd0dd312	-0.03462512
1	0x3d562f2e	0.052291088
2	0xbd4891c1	-0.048967127
3	0xbe01a20b	-0.1265947
4	0x3d26d1a5	0.040727276
5	0xbda175b8	-0.07883781
6	0x3dee44d3	0.11634221
7	0x3d479e63	0.048735034
8	0x3da7d0d7	0.0819413
9	0x3d8829f2	0.066486254
10	0x3d83c2d6	0.064336464
11	0x3d4632ba	0.04838822
12	0xbd80cf61	-0.062895544
13	0xbde4d71e	-0.11173843
14	0x3dd6ffda	0.104980186
15	0x3ddcc8bd	0.10780475
16	0xbca1b0fe	-0.019737717
17	0x3d9d739f	0.076880686
18	0x3dbe1104	0.09280589
19	0xbd0dae47	-0.034590032
20	0x3d4e1a06	0.050317787
21	0xbd2f3bf5	-0.04278179
22	0x3d31d439	0.043415282
23	0xbaa581ec	-0.0012627221
24	0xbd44cfc5	-0.048049707
25	0x3d9218f3	0.07133665
26	0x3d81e917	0.063432865
27	0x397dcb1a	0.00024203621
28	0xbcb90f87	-0.022590412
29	0xbdae1262	-0.084996
30	0x3c986c1d	0.01860624
31	0xbe02ee3b	-0.1278619
32	0x3d177aaa	0.036982216
33	0xbc4aaa6b	-0.012369732
34	0xbd9bf9a3	-0.07615974
35	0xbdbed241	-0.093174465
36	0x3d4f6432	0.050632663
37	0xbde46aaa	-0.11153157
38	0xbda931e1	-0.08261467
39	0xbb6c8c29	-0.0036094284
40	0x3ce0813c	0.027405374
41	0xbdca80f4	-0.09887877
42	0xbda72805	-0.0816193
43	0xbd05d7a7	-0.032676365
44	0xbdc97c05	-0.09838108
45	0xbd4fb8ef	-0.050713476
46	0xbaf74ee2	-0.0018868113
47	0x3d309939	0.043114875
48	0xbc42005d	-0.011840907
49	0x3ddd94fd	0.10819433
50	0x3ca54c1e	0.020177897
51	0xbe036802	-0.12832645
52	0x3dc6223a	0.09674497
53	0xbd67c22b	-0.056581657
54	0x3d198599	0.037480924
55	0x3c8a981c	0.016918235
56	0xbd172092	-0.036896296
57	0xbde9aebd	-0.11410282
58	0xbdb67e80	-0.08910847
59	0x3d1e8fb0	0.03871125
60	0xbcaf39b3	-0.021389818
61	0x3d61dd5e	0.055142753
62	0x3c838702	0.016055588
63	0xbdac2993	-0.08406367
64	0xbc6ed1a0	-0.014576346
65	0x3defb919	0.117052265
66	0x3ad5f9ed	0.0016325094
67	0xbd37c704	-0.04486753
68	0x3dfe9d83	0.12432387
69	0x3d1af087	0.03782704
70	0x3d564757	0.05231413
71	0xbd421fb8	-0.04739353
72	0xbde2cee5	-0.11074618
73	0x3dc5f9c5	0.096667804
74	0x3dbaea86	0.09126763
75	0x3c45a645	0.0120635675
76	0x3dfc1c12	0.123100415
77	0x3e02dc57	0.12779365
78	0xbdf44b7b	-0.11928459
79	0x3d29fbdb	0.041499954
80	0x3d42558d	0.04744487
81	0xbc123e95	-0.0089260535
82	0x3d484215	0.048891146
83	0xbdac8745	-0.08424238
84	0xbdeff084	-0.117157966
85	0xbdb6b478	-0.089211404
86	0x3c448ad4	0.01199599
87	0xbd51c9b5	-0.051217753
88	0x3c9c12d3	0.019051945
89	0x3d79f60b	0.06102566
90	0xbd426f57	-0.047469463
91	0xbd5899d3	-0.052881073
92	0xbce2add0	-0.02767077
93	0x3dbe0807	0.09278875
94	0xbdec597f	-0.115405075
95	0xbd404ddd	-0.046949256
96	0xbdf30a46	-0.11867194
97	0x3bce1543	0.0062891557
98	0xbdd1bd52	-0.10241188
99	0x3d43c0a9	0.047791157
100	0x3c9e97a5	0.01935942
101	0xbd5ab9c5	-0.05339982
102	0xbdd5ef9f	-0.10446095
103	0xbdae6ac9	-0.085164614
104	0xba0ad06e	-0.00052953407
105	0x3d23eaca	0.040018834
106	0x3c186577	0.009301535
107	0x3c206bf4	0.009791363
108	0xbcd4ad8f	-0.025961665
109	0x3c8b1187	0.016976131
110	0xbafaf590	-0.001914667
111	0x3df10f22	0.117704645
112	0x3e02df4b	0.12780492
113	0xbdfbe395	-0.12299267
114	0x3dc75b20	0.097341776
115	0x3dc93e5e	0.09826349
116	0x3de02feb	0.109466396
117	0xbcaf93b7	-0.02143274
118	0xbd8bbf7b	-0.068236314
119	0x3d67aeb4	0.056563094
120	0xbd1af7be	-0.03783392
121	0x3ddadae0	0.10686278
122	0xbddd52aa	-0.108067825
123	0x3d045aae	0.03231304
124	0xbccd4628	-0.025057867
125	0x3d61560e	0.05501371
126	0xbdd3f554	-0.10349527
127	0xbd467bd9	-0.048457954
128	0x3cb7133b	0.022348037
129	0x3d8d1b91	0.068900235
130	0xbdd02ace	-0.10164414
131	0x3dd7983f	0.105270855
132	0x3ce57fd5	0.028015057
133	0xbdb481ad	-0.08813796
134	0xbc55b73f	-0.013044178
135	0xbdcd0717	-0.10011118
136	0x3d8b9c36	0.06816904
137	0x3d5b9449	0.053608213
138	0xbcbbdf7b	-0.022933712
139	0x3d9630db	0.07333537
140	0x3c6fa7ac	0.014627378
141	0xbcb6d9f1	-0.02232072
142	0xbe029fc5	-0.1275626
143	0xbd3f7d4d	-0.046750356
144	0xbdd64a72	-0.10463418
145	0x3dc6ffb5	0.09716741
146	0x3dd3ce51	0.10342086
147	0xbd906d69	-0.07052118
148	0xbd5be064	-0.053680792
149	0xbd31a623	-0.04337133
150	0xbe00b099	-0.12567367
151	0xbccd97f9	-0.02509688
152	0xbc75d734	-0.015004922
153	0xbdda3196	-0.10653989
154	0x3dffa885	0.124833144
155	0xbdd81a8f	-0.10551941
156	0xbcbc0225	-0.022950241
157	0x3d34b2c9	0.044115815
158	0x3dd9e7a1	0.10639883
159	0xbdc144cc	-0.0943695
160	0xbcfec1c7	-0.03109826
161	0xbd0d512f	-0.03450125
162	0xbd4b3f90	-0.049621165
163	0x3c9f303e	0.019432183
164	0xbdd85fb7	-0.10565131
165	0xbd22e86e	-0.039772443
166	0x3dc928aa	0.09822209
167	0x3d9638c1	0.07335044
168	0x3dea8f8a	0.11453159
169	0xbcd4be81	-0.025969746
170	0xbbfebc43	-0.0077739074
171	0x3d42dafa	0.047572114
172	0x3d4dadf3	0.05021472
173	0xbc690590	-0.014222518
174	0x3ce92518	0.02846007
175	0x3b7fb8c7	0.0039020048
176	0xbb37de6f	-0.0028056165
177	0xbd809bb3	-0.06279697
178	0x3d9c9602	0.07645799
179	0xbde85ead	-0.11346183
180	0xbd717433	-0.058948707
181	0x3c09c3e7	0.008408523
182	0x3dacabce	0.08431207
183	0x3d99a0ed	0.07501397
184	0x3d39c10e	0.045350127
185	0xbdb1f544	-0.08689359
186	0x3d881088	0.06643778
187	0x3d9eaa59	0.07747335
188	0x3db6b741	0.08921672
189	0x3dcf2a3b	0.10115477
190	0xbd9ac222	-0.07556559
191	0x3dcc3bf4	0.09972373
192	0x3d978169	0.0739773
193	0x3dd6f199	0.104953
194	0x3d8ba007	0.06817632
195	0x3dca066c	0.09864506
196	0x3db1a3c1	0.08673812
197	0x3dd2f218	0.10300082
198	0xbd401d73	-0.046903085
199	0x3dd30d8c	0.10305318
200	0xbd98fec9	-0.074704714
201	0xbde50f88	-0.11184603
202	0x3dd8c93f	0.1058526
203	0x3d6a517a	0.05720661
204	0x3d936248	0.0719648
205	0xbdab5c48	-0.083672106
206	0x3da9fdf4	0.08300391
207	0xbdf7e6cb	-0.12104567
208	0xbd6824f6	-0.056675874
209	0xbc9dd0e5	-0.019264648
210	0xbd5aa85b	-0.053383213
211	0x3d970c60	0.07375407
212	0x3df03ada	0.11729975
213	0x3d7d39ea	0.06182281
214	0xbd18c441	-0.037296537
215	0xbbd9f675	-0.0066516944
216	0xbd539598	-0.051656336
217	0xbd273f92	-0.04083211
218	0xbd37032c	-0.04468076
219	0x3dd3ff2e	0.10351406
220	0xbd1425a4	-0.03616871
221	0x3d033255	0.032030422
222	0x3ba688e6	0.0050822375
223	0xbd2fe6a9	-0.042944584
224	0xbd8734dc	-0.06601879
225	0xbdb5e7ec	-0.08882126
226	0x3d5f1476	0.054462872
227	0x3d8b1ac2	0.06792213
228	0xbdc851d5	-0.09781233
229	0x3d37b55d	0.044850696
230	0xbdc80e4a	-0.097683504
231	0xbd8184d2	-0.063241616
232	0xbd108255	-0.035280544
233	0x3d11485b	0.035469394
234	0x3de77ad1	0.11302722
235	0x3dbd7fa2	0.0925286
236	0xbd179184	-0.03700401
237	0x3d582cb8	0.052777022
238	0x3d86ea04	0.06587604
239	0x3de5034f	0.11182272
240	0x3d7fd32a	0.06245724
241	0xbda1f4ea	-0.07908042
242	0x3db1978c	0.086714834
243	0x3e01dea2	0.12682584
244	0xbd32d03a	-0.04365561
245	0x3d7bc023	0.061462533
246	0x3cfc5bf2	0.030805562
247	0xbdbbccaa	-0.09169896
248	0x3df2943d	0.118446805
249	0xbcde9102	-0.027168754
250	0x3dd1c16a	0.10241969
251	0x3d927b94	0.07152477
252	0x3c09e870	0.008417234
253	0x3dd23673	0.102642916
254	0x3de0dfaf	0.10980164
255	0x3d87ed90	0.06637108

linear1.bias f4 [512]
0	0x3ddd614f	0.10809576
1	0x3de32b0c	0.11092195
2	0xbc8dcb79	-0.017308937
3	0xbab986a7	-0.0014154509
4	0xbc9eeb13	-0.019399201
5	0xbd6700f4	-0.056397393
6	0x3ccacfec	0.024757348
7	0x3d94e7ad	0.07270751
8	0xbd10c5ca	-0.035344876
9	0xbd3f7930	-0.046746433
10	0x3d6ff295	0.058580954
11	0xbdc769a4	-0.09736946
12	0x3de378e1	0.1110704
13	0xbb7178b0	-0.0036845617
14	0xbd6505b9	-0.05591366
15	0x3c674d76	0.014117589
16	0x3de54072	0.111939326
17	0xbdb44bb5	-0.088035025
18	0xbd3bc156	-0.045838676
19	0x3e00b3e6	0.12568626
20	0xbcf3fb37	-0.029782875
21	0x3dc2800b	0.094970785
22	0x3e031874	0.12802297
23	0x3d27ebf0	0.040996492
24	0x3c25d8ce	0.010122491
25	0xbcdb32a8	-0.026757553
26	0xbd73c4cd	-0.059513856
27	0x3c7f1599	0.015569114
28	0xbda88889	-0.08229167
29	0x3c08cf21	0.008350165
30	0x3affad6b	0.0019506639
31	0x3bd63be6	0.006537902
32	0x3bda817f	0.006668269
33	0x3d73499f	0.059396382
34	0x3ccecb9d	0.025243575
35	0xbd279bd0	-0.04092008
36	0xbdd00562	-0.10157277
37	0x3e028067	0.12744294
38	0x3df72e7f	0.12069415
39	0x3e01777a	0.12643233
40	0xbcf5e90d	-0.030018354
41	0xbd8222ca	-0.06354292
42	0xbd972bb2	-0.07381381
43	0xbdc01c8e	-0.093804464
44	0x3d5f746e	0.054554395
45	0xbc2aced2	-0.010425286
46	0xbd8bcf6f	-0.06826674
47	0x3cef8043	0.029235965
48	0x3cd515be	0.026011344
49	0xbddc2976	-0.107500955
50	0xbdba0399	-0.090827174
51	0x3d2fbbb4	0.042903617
52	0x3dadb5cc	0.084819406
53	0xbd135a57	-0.035974827
54	0x3d1a87af	0.037727054
55	0xbd51c9ca	-0.05121783
56	0x3dfbdd86	0.122981116
57	0x3d1783ee	0.036991052
58	0x3d7402b0	0.059572875
59	0x3d96bafa	0.07359882
60	0x3db07acf	0.08617174
61	0x3d40e858	0.04709658
62	0x3e002075	0.12512381
63	0x3d880c66	0.0664299
64	0x3daea939	0.085283704
65	0xbd1f21d0	-0.038850605
66	0x3d7c4b52	0.06159527
67	0x3d2ec1af	0.04266518
68	0xbbae4af6	-0.0053189946
69	0xbda226f7	-0.07917588
70	0x3d20e4eb	0.039280813
71	0x3b7f5ff5	0.0038967107
72	0x3cd4820e	0.025940921
73	0xbc8aa34f	-0.016923575
74	0xbda08258	-0.07837361
75	0xbc145c48	-0.009055205
76	0xbd46057f	-0.048345085
77	0x3dddcb1f	0.10829758
78	0x3d43dfb1	0.04782075
79	0xbdb6b887	-0.089219145
80	0x3ddfe8ca	0.10933073
81	0xbd75a13e	-0.059968226
82	0x3cd40ea4	0.025885887
83	0x3d8bec94	0.06832233
84	0xbdcde7c3	-0.10053971
85	0xbd561347	-0.052264478
86	0xbd4fbf36	-0.050719462
87	0x3d6884c5	0.056767244
88	0x3d3a218e	0.045442156
89	0xbd8e5df8	-0.06951517
90	0x3d40f2a4	0.0471064
91	0x3dbc79ed	0.09202943
92	0xbd7b0d34	-0.06129189
93	0x3ada7a03	0.0016668442
94	0xbbae31ca	-0.005315994
95	0x3d147c65	0.036251444
96	0xbd9c8eae	-0.076444015
97	0xbd5ec8a6	-0.054390572
98	0x3d6818e4	0.056664363
99	0xbd527c7a	-0.05138824
100	0x3dad14d3	0.084512375
101	0xbd4bcbb7	-0.049754824
102	0x3d95a9e0	0.07307792
103	0xbbb44fe5	-0.005502688
104	0x3d93a044	0.072083026
105	0x3cffbc5c	0.031217746
106	0x3be4d8f1	0.0069838692
107	0x3dc919c9	0.09819371
108	0x3d2202f0	0.039553583
109	0xba64eae3	-0.00087325106
110	0x3dd68ffb	0.10476681
111	0x3dc1ef73	0.094694994
112	0x3d9099a3	0.07060554
113	0x3d877e0d	0.06615839
114	0xbb9316b1	-0.004488789
115	0xbdc4820d	-0.09595118
116	0x3dc94bd3	0.098289154
117	0xbdcb9a9e	-0.099416
118	0xbdba1872	-0.09086694
119	0x3c1a1c14	0.009406108
120	0x3cbaffb0	0.022827
121	0x3d41266d	0.047155786
122	0x3d99a5f2	0.07502355
123	0xbdd20d1f	-0.10256409
124	0xbd26edff	-0.040754315
125	0x3dfbac52	0.12288727
126	0x3d58c486	0.052921794
127	0xbce51912	-0.027966056
128	0xbdc244b6	-0.09485762
129	0x3bfafc26	0.007659453
130	0xbdc826aa	-0.097729996
131	0xbdac299d	-0.084063746
132	0x3e02b12e	0.12762901
133	0x3deacd1f	0.11464905
134	0x3deb3c51	0.11486114
135	0xbdf017d3	-0.11723294
136	0x3be37f57	0.0069426703
137	0x3cf28dcc	0.02960863
138	0xbde95103	-0.11392405
139	0xbdfaf18c	-0.12253103
140	0x3cb64d39	0.02225362
141	0xbdefb725	-0.11704854
142	0xbd9d7968	-0.07689172
143	0xbd34b7a8	-0.04412046
144	0x3cb18bc8	0.021673098
145	0xbbc8c533	-0.0061270236
146	0xbde412ca	-0.11136396
147	0xbd9b69e8	-0.075885594
148	0x3c5bff81	0.013427616
149	0x3dbb0e23	0.09133556
150	0x3d9c6fec	0.07638535
151	0xbd33dea4	-0.0439135
152	0xbd10d8ed	-0.035363127
153	0x3d96508b	0.07339581
154	0x3d62b6f2	0.05535025
155	0x3b354381	0.0027658644
156	0xbd4059b1	-0.046960536
157	0xbcd56c88	-0.026052728
158	0x3deb2fec	0.1148375
159	0x3de84d18	0.113428295
160	0x3dfa661e	0.122265086
161	0x3c9b523e	0.018960115
162	0x3dcaa7a7	0.098952584
163	0x3d8b86fa	0.06812854
164	0x3d8c157c	0.06840035
165	0xbd821d6a	-0.063532665
166	0xbd9ac65b	-0.075573646
167	0x3d22a186	0.039704822
168	0xbdcaab93	-0.098960064
169	0xbdedb611	-0.11606992
170	0xbd96a2e2	-0.07355286
171	0x3e03e7ec	0.1288144
172	0xbdb00573	-0.08594789
173	0xbdabef26	-0.08395223
174	0xbdc62f95	-0.09677044
175	0xbdc3d36b	-0.09561809
176	0xbd7b3ae4	-0.06133546
177	0x3cd5b115	0.026085416
178	0x3d041899	0.03225002
179	0x3d81213c	0.06305167
180	0xbdf96114	-0.12176719
181	0xbdc58fff	-0.09646606
182	0xbdbdce7b	-0.09267899
183	0x3db529e3	0.0884588
184	0x3b2820b9	0.002565427
185	0xbdce4fa6	-0.100737855
186	0xbd80d568	-0.06290704
187	0x3d452496	0.048130594
188	0x3da79d6d	0.081843235
189	0xbc90f4bb	-0.017694822
190	0x3d81fdcd	0.06347237
191	0x3d490e45	0.049085874
192	0xbcda5f41	-0.026656749
193	0xbb9eeeb9	-0.0048502353
194	0x3d9a28bd	0.075273015
195	0xbdab7908	-0.08372694
196	0x3d04ede3	0.03245343
197	0x3df16806	0.11787419
198	0xbcf303f5	-0.029664973
199	0xbdf30927	-0.1186698
200	0x399e6de2	0.00030217977
201	0xbdf570d2	-0.119844094
202	0xbc32dbb3	-0.010916638
203	0x3decff72	0.1157216
204	0x3d852605	0.06501392
205	0x3d5fc22e	0.054628544
206	0xbdbad416	-0.091224834
207	0xbcf3e64d	-0.029772902
208	0xbda94cb7	-0.08266585
209	0xbdccf58e	-0.10007773
210	0x3e0350d5	0.12823804
211	0x3df7a137	0.12091296
212	0x3df523ca	0.11969717
213	0x3d1002ee	0.035159044
214	0x3b18233d	0.0023214363
215	0x3d470267	0.048586275
216	0x3d2930d9	0.04130635
217	0x3d8edd70	0.069758296
218	0xbc04374b	-0.0080698235
219	0x3a9905ef	0.0011674742
220	0x3a3b3f24	0.00071428926
221	0xbdb8558d	-0.090006925
222	0xbd7fcea5	-0.06245293
223	0x3db569d3	0.08858075
224	0x3d948fbc	0.07253978
225	0x3d433cf6	0.04766556
226	0x3d07ea97	0.033182707
227	0x3de70554	0.11280313
228	0x3cc3eb64	0.023915954
229	0x3cf8fefb	0.030395022
230	0xbdab57ce	-0.08366357
231	0xbd2a76d7	-0.04161724
232	0x3d898678	0.06715101
233	0xbdf73e62	-0.120724455
234	0x3be766f5	0.007061834
235	0x3b91e2ca	0.004452084
236	0xbd7e1c80	-0.0620389
237	0xbd9d63a1	-0.07685018
238	0x3dc14243	0.094364665
239	0xbdbe85c1	-0.09302855
240	0xbdcdc45e	-0.1004722
241	0x3daabda9	0.08336956
242	0x3dee05a5	0.1162217
243	0x3cae733e	0.021295186
244	0xbda928c5	-0.08259729
245	0xbe0095ed	-0.12557192
246	0x3d8d176d	0.06889234
247	0x3bf44d10	0.0074554756
248	0xbdfa1117	-0.12210291
249	0x3d5aff08	0.053465873
250	0x3da67e60	0.08129573
251	0xbce988e3	-0.028507655
252	0x3e02fc7b	0.12791626
253	0x3d048ffc	0.032363877
254	0x3daa7a2e	0.08324085
255	0x3da32f9b	0.079680644

linear2.weight f4 [256, 512]
0	0xbbd66d7e	-0.006543814
1	0x3ca898f8	0.020580754
2	0xbb8a6c4d	-0.0042243362
3	0xbbb9ebc1	-0.005673856
4	0xbbe6736c	-0.0070328023
5	0xbcb76384	-0.02238632
6	0x3cf149bb	0.029454103
7	0xbc297bf0	-0.01034449
8	0xbcf731f5	-0.030175189
9	0x3c85f061	0.016349973
10	0xbd237937	-0.03991052
11	0x3d04b6c9	0.03240088
12	0xbcedfaac	-0.029050194
13	0xbcbcace2	-0.023031656
14	0x3c7e9ee4	0.015540812
15	0xbc733a41	-0.014845432
16	0xbd2f5175	-0.042802293
17	0xbd20823d	-0.039186705
18	0x3ca4c066	0.020111274
19	0x3c301e1f	0.010749369
20	0xbc8593a1	-0.016305747
21	0x3c198f34	0.009372521
22	0xbbe7256f	-0.007054023
23	0x3d196298	0.037447542
24	0xbd139153	-0.036027264
25	0xbb38dcfa	-0.0028207884
26	0x3d2fdaba	0.042933203
27	0xbcde3d6d	-0.0271289
28	0xbd26ede7	-0.040754225
29	0x3bc5ec7d	0.0060401545
30	0xbc7ca0de	-0.015419213
31	0x3ce9bc6f	0.028532235
32	0xbc6419f0	-0.0139222
33	0x3d01705b	0.03160129
34	0x3d1ca30b	0.038241427
35	0x3c8c2f04	0.017112263
36	0x3cf6921e	0.030098971
37	0x3d181588	0.03712991
38	0xbd1627df	-0.036659118
39	0xbc6ebf86	-0.01457203
40	0x3cfb8700	0.030704021
41	0x3c884c7e	0.016638037
42	0x3d11a0f3	0.035553884
43	0xbad36bb8	-0.0016130125
44	0x3cccbfc2	0.024993781
45	0xbd0dd367	-0.034625437
46	0x3d18c041	0.037292723
47	0xbd03bf08	-0.032164603
48	0x3ce0cf1c	0.027442507
49	0xbc75c0bf	-0.0149995675
50	0xbd067cbf	-0.03283381
51	0xbcbe17a7	-0.023204638
52	0xbccb7ea2	-0.024840657
53	0xbc1dfbf2	-0.009642588
54	0x3d035c32	0.032070346
55	0x3cde839e	0.02716237
56	0x3d2c78d6	0.042107426
57	0x3bf8f98b	0.007598107
58	0xbd2dc4dc	-0.042424068
59	0x3c53285e	0.012888042
60	0x3c879938	0.016552553
61	0xbcf90afd	-0.030400747
62	0x3d266a48	0.0406287
63	0xbc960bcc	-0.018316172
64	0xbc96e207	-0.018418325
65	0xbb21a35c	-0.002466402
66	0xbd1ae8be	-0.037819616
67	0xbb079c4a	-0.002069252
68	0x3bc0f620	0.0058887154
69	0x3ce78022	0.02825934
70	0x3ca802be	0.02050912
71	0x3ccf9943	0.025341636
72	0xbd253e15	-0.04034241
73	0xbcb69575	-0.022288064
74	0x39f73d20	0.00047157053
75	0xbc38d686	-0.011281615
76	0x3ce5090a	0.027958412
77	0x3c1601ff	0.009155749
78	0x3ca95e32	0.020674799
79	0xbd15b414	-0.03654869
80	0xbbd34bc4	-0.006448241
81	0xbbffdc46	-0.007808241
82	0x3c4525d0	0.012032941
83	0x3cabe03d	0.020980949
84	0xbc9e064c	-0.019290112
85	0xbcf82f6c	-0.03029605
86	0xbd15b43a	-0.03654883
87	0x3c407574	0.011746753
88	0x3c9bae6d	0.019004071
89	0xbd106318	-0.035250753
90	0x3d341a3a	0.043970324
91	0xbd0ef09f	-0.034897443
92	0xbd32659d	-0.043553937
93	0xbd2a66cf	-0.041601952
94	0x3d01ad18	0.031659216
95	0x3c01ab48	0.007914372
96	0xbc17845d	-0.009247866
97	0xbcffa52c	-0.03120669
98	0xbcbf93dd	-0.023385936
99	0xbc0b7183	-0.00851095
100	0xbb9e5428	-0.0048318096
101	0x3c4d006d	0.012512309
102	0xbc3067d1	-0.010766939
103	0x39abdd99	0.00032780765
104	0xbcb03b1a	-0.021512557
105	0xbad5c600	-0.0016309619
106	0x3c35979c	0.01108351
107	0xbcac87e9	-0.0210609
108	0x3d220ea2	0.039564736
109	0xbd1e4b99	-0.038646314
110	0xbaa14a16	-0.0012305405
111	0x3cae1d0a	0.021254081
112	0xbcac4695	-0.02102975
113	0xbc600e72	-0.013675319
114	0x3cfb8cc4	0.03070677
115	0xbd33a520	-0.043858647
116	0xbcbe00a0	-0.023193657
117	0xbd0cf5ae	-0.034413986
118	0xbd2e92c6	-0.042620443
119	0xbcaea47c	-0.021318667
120	0x3cfaee6b	0.030631265
121	0xbd19f549	-0.037587438
122	0x3cb8303e	0.022483941
123	0xbba5e23a	-0.0050623687
124	0xbcbc36f6	-0.022975426
125	0x3c98b085	0.018638859
126	0x3d1fd21d	0.03901874
127	0xbca1551a	-0.0196939
128	0xbcf1fe28	-0.029540136
129	0x3c8690c3	0.01642645
130	0xbc542600	-0.012948513
131	0x3d1dd09b	0.03852902
132	0xbc9c8109	-0.019104498
133	0xbd222dc3	-0.039594423
134	0x3cd7f6ab	0.026362738
135	0xbcec748f	-0.028864173
136	0xbc35782f	-0.011076017
137	0x3c846ec4	0.016166098
138	0xbcaf54c3	-0.021402722
139	0x3b3ea088	0.0029087383
140	0x3cff1933	0.031139946
141	0x3d16487f	0.03669023
142	0xbd237d95	-0.039914686
143	0xbcc6069e	-0.024173077
144	0xbc84f3fa	-0.016229618
145	0xbc5d422b	-0.013504545
146	0xbc69e47a	-0.014275664
147	0xbcc8f9b2	-0.024533127
148	0xb9a98ba1	-0.00032338224
149	0x3bf2068d	0.007386035
150	0xbce3b75a	-0.02779739
151	0x3ce92301	0.028459074
152	0xbc85bbf7	-0.01632498
153	0xbcbd70f6	-0.023125153
154	0x3cf3bd20	0.029753268
155	0x3d2fb3d4	0.042896107
156	0x3a47f047	0.00076270517
157	0xbce1405c	-0.02749651
158	0x3d151c35	0.036403853
159	0xbc8573c6	-0.016290557
160	0xbcf74e5a	-0.030188728
161	0xbb079c07	-0.0020692365
162	0x3cd0d502	0.025492195
163	0x3cfe5fb7	0.0310515
164	0xbba35147	-0.0049840542
165	0xbca6c669	-0.020358281
166	0xbd2e13ff	-0.04249954
167	0xbcef023c	-0.02917587
168	0xbc319944	-0.010839764
169	0xbc0a28e2	-0.008432599
170	0x3ca52954	0.020161308
171	0xbc4f9fab	-0.012672345
172	0xbd0d89e8	-0.034555346
173	0xba19674c	-0.0005851879
174	0x3c3efda0	0.011657149
175	0x3cc361d9	0.023850368
176	0xbc630b40	-0.013857663
177	0x3cba6122	0.022751395
178	0xb8362b1b	-4.3432326e-05
179	0xbce34b98	-0.027746007
180	0x3cf6a7b5	0.030109266
181	0x3c836944	0.016041405
182	0x3ccf560d	0.025309587
183	0xbd1f5eb2	-0.038908668
184	0xbcc9aaea	-0.024617631
185	0x3cfbc6df	0.030734478
186	0x3b8673d6	0.004103164
187	0x3c544a4e	0.012957169
188	0x3c016470	0.007897481
189	0xbb5bcb7e	-0.003353804
190	0x3b904a76	0.0044034077
191	0xbc93554c	-0.017985009
192	0x3c8fb42e	0.017541971
193	0xbd32292d	-0.0434963
194	0xbcd734cf	-0.026270298
195	0x3cbe8c15	0.023260156
196	0x3c31c7de	0.010850875
197	0xbcc4ccaf	-0.024023382
198	0xbcc07007	-0.023490919
199	0x3bdf504d	0.0068149925
200	0xbba6b7ba	-0.00508782
201	0xbcf9b94a	-0.03048386
202	0xbc8bd178	-0.017067656
203	0xb93dcd8c	-0.00018101017
204	0x3ca3d661	0.019999685
205	0xbcfb953b	-0.030710807
206	0x3c9962b6	0.018723827
207	0xbb763988	-0.0037570912
208	0x3ca4bb05	0.02010871
209	0x3c0f22a6	0.008736288
210	0xbce25dee	-0.02763268
211	0x3cd4f43b	0.025995364
212	0xbc404aeb	-0.011736612
213	0xbd2c8a57	-0.04212412
214	0xbc1c0e95	-0.009524961
215	0x3d0ffeb5	0.035155017
216	0x3d24b58d	0.040212203
217	0x3d183416	0.037159048
218	0x3c95333f	0.018212913
219	0x3c47cd1f	0.012194901
220	0x3d0f4b3c	0.03498386
221	0x3c10d448	0.008839674
222	0xbcc20af8	-0.023686871
223	0x3d1391af	0.036027607
224	0xbd1fda40	-0.0390265
225	0xbca78f46	-0.02045406
226	0x3d1dc217	0.038515177
227	0x3c22ec57	0.009944043
228	0x3bd86f9b	0.0066051013
229	0xbd1183b2	-0.035525985
230	0xbcaa9cf2	-0.02082679
231	0xbc97c697	-0.018527312
232	0xbc10c848	-0.008836813
233	0xbcc76f3e	-0.024345037
234	0x3d131cd9	0.035916183
235	0xbc8bd290	-0.017068177
236	0x3ce964b3	0.0284904
237	0xbcef1042	-0.029182557
238	0xbb9ebd84	-0.0048443694
239	0x3bc4606b	0.005992939
240	0xbcf4281e	-0.029804286
241	0x3cffeeb9	0.031241762
242	0xbd059b65	-0.0326189
243	0x3d001137	0.031266417
244	0xbbcb1d46	-0.006198558
245	0xbbb7b913	-0.0056067794
246	0xbb9e3f62	-0.004829333
247	0xbcbc020a	-0.022950191
248	0x3d065444	0.032795206
249	0xbd1b0b33	-0.037852477
250	0x3ad5f88e	0.0016324685
251	0x3d2caac2	0.042155035
252	0xbc14e886	-0.009088641
253	0xbcc98e0c	-0.024603866
254	0xbc05cbdb	-0.008166279
255	0x3d326fed	0.043563772

linear2.bias f4 [256]
0	0x3c597e68	0.0132747665
1	0xbcecb64c	-0.02889552
2	0x3cdc3a02	0.026883129
3	0x3b1270c5	0.0022345048
4	0x3c114e31	0.00886874
5	0x3d0ba26e	0.034090452
6	0xbceb86f0	-0.028750867
7	0x3d0e43ce	0.034732632
8	0xbcb3513a	-0.021889318
9	0x3cbf4947	0.023350371
10	0xbc0ebc2a	-0.008711854
11	0x3b9a745a	0.004713577
12	0xbd2af527	-0.0417377
13	0x3c8b0956	0.016972225
14	0xbd32b83a	-0.043632723
15	0xbd2beb8d	-0.041972686
16	0xbd2ba391	-0.041904036
17	0xbc84fc9b	-0.016233733
18	0xbd1a883a	-0.037727572
19	0xbcff9a23	-0.031201428
20	0x3c784c26	0.015154874
21	0x3d2b6661	0.041845683
22	0x3d2ff1a4	0.042955056
23	0xbbd77ffc	-0.006576536
24	0x3b002b14	0.0019556927
25	0x3c06ee4c	0.008235525
26	0x3c493405	0.012280469
27	0xbc1991b9	-0.009373122
28	0xbcd3ed44	-0.025869973
29	0xbca30fd4	-0.019905008
30	0xbc04161c	-0.008061912
31	0x3bf5422d	0.0074846954
32	0x3abdd6be	0.0014483554
33	0x3cddc696	0.027072232
34	0x3b8459af	0.0040390114
35	0xbbdcbd0e	-0.0067364043
36	0xbc879b5a	-0.01655357
37	0xbc97f901	-0.018551352
38	0xbcdbfa59	-0.026852774
39	0x3cc4b22e	0.024010744
40	0xbcb4baa6	-0.022061657
41	0x3bc2bc66	0.005942869
42	0xbc589767	-0.013219691
43	0xbc775405	-0.015095715
44	0x3cc4650c	0.023973964
45	0x3bb80500	0.0056158304
46	0x3c5df0ab	0.013546149
47	0xbcb6f940	-0.022335649
48	0x3c5d980f	0.013525023
49	0xb94ad5ae	-0.00019343823
50	0xbc17dddb	-0.009269203
51	0x3c8d2251	0.017228277
52	0xbcc6e39c	-0.024278454
53	0xbbfd5efe	-0.007732271
54	0x3d0c21fc	0.034212098
55	0xbbe5b0b3	-0.0070095896
56	0x3c98ce32	0.01865301
57	0x3c0e4eb7	0.008685759
58	0x3cb39e6d	0.02192613
59	0xba0d7296	-0.0005395798
60	0x3c4b0815	0.012392064
61	0xbc3e946c	-0.011632066
62	0x3cbe0dd1	0.023199948
63	0x3ce42683	0.027850395
64	0xbbcfd68f	-0.006342716
65	0x3bbc0971	0.00573843
66	0xbd16805a	-0.0367435
67	0x3c2fd6b4	0.010732342
68	0xbbf149e3	-0.0073635443
69	0xbd242a25	-0.040079255
70	0xbcfb69a2	-0.030690018
71	0x3d28ae2c	0.04118173
72	0x3ca5800c	0.02020266
73	0x3ceaf995	0.028683463
74	0x3c3c4a25	0.011492287
75	0x3d05b439	0.032642577
76	0x3cf51c04	0.029920585
77	0xbc61fa32	-0.013792561
78	0xbc44c68d	-0.012010229
79	0xbc646a9d	-0.013941434
80	0x3d2f02d8	0.04272732
81	0xbc9eaf9e	-0.01937085
82	0xbc202b11	-0.009775893
83	0x3c8ede42	0.017439965
84	0xbd2aba8d	-0.041681815
85	0xbc606ed0	-0.013698295
86	0x3ce086a7	0.027407957
87	0xbba477d5	-0.005019168
88	0xbc442834	-0.011972476
89	0x3d190379	0.037356827
90	0xbba07a5f	-0.0048974003
91	0x3d0c6d11	0.0342837
92	0x3d31089e	0.04322111
93	0xbd0b6ffe	-0.03404235
94	0x3d08e94b	0.03342561
95	0x3cf1d801	0.029521944
96	0xbcd578e7	-0.026058627
97	0xbc2c8de9	-0.010531881
98	0x3d1c27e4	0.03812398
99	0x3a998c6b	0.0011714821
100	0x3cd77b47	0.0263039
101	0x3b0f9b5d	0.0021912672
102	0x3c3fbf43	0.011703315
103	0xbc8ae036	-0.016952615
104	0xbd261c5a	-0.040554382
105	0x3d2cd41a	0.042194463
106	0xbb6847ca	-0.003544318
107	0x3cd04aa5	0.025426218
108	0x3d334601	0.043767933
109	0x3b76755f	0.003760658
110	0xbcc6f3be	-0.024286147
111	0xbc11cdd9	-0.008899176
112	0x3cc589e1	0.024113597
113	0x39486a41	0.00019113069
114	0x3c36216d	0.011116368
115	0xbc9d2d91	-0.019186767
116	0x3cacda55	0.021100203
117	0xbc596be3	-0.013270351
118	0x3c8eeefc	0.017447941
119	0x3b34d2d5	0.0027591486
120	0xbd1652ec	-0.036700174
121	0x3d1a4651	0.037664715
122	0xbc3ef349	-0.011654683
123	0xbc756d4f	-0.0149796745
124	0x3caf0668	0.02136536
125	0xbbc60679	-0.006043252
126	0xbd1cd0f8	-0.038285226
127	0xbd2e80c2	-0.04260326
128	0xbc9937d5	-0.01870338
129	0x3c5243b5	0.012833525
130	0x3c9842be	0.018586513
131	0xbc3e955a	-0.011632288
132	0xbd2b0eb7	-0.04176208
133	0x3caaa147	0.020828856
134	0xbc3749e7	-0.011187053
135	0xbd11b689	-0.03557447
136	0x3c8b5565	0.017008493
137	0xbc967435	-0.018365959
138	0xbd20355c	-0.039113387
139	0x3be3f131	0.0069562425
140	0x3ca3a85a	0.019977737
141	0x3a092270	0.0005231267
142	0xbced881c	-0.028995566
143	0xbd129ca1	-0.035793904
144	0x3cd7264b	0.026263377
145	0xbc8e4d80	-0.01737094
146	0x3cf2b2ee	0.029626336
147	0x3cbe4fa2	0.023231331
148	0xbad64a95	-0.0016349131
149	0x3cf3a112	0.02973989
150	0x3cdaff20	0.026732981
151	0xbbb4fb51	-0.0055231233
152	0xbd235755	-0.03987821
153	0xba1ae35e	-0.0005908514
154	0x3d0a9749	0.033835683
155	0x3b092544	0.0020926753
156	0xb9fb85d9	-0.00047974175
157	0x3b07391e	0.002063341
158	0xbd200a00	-0.039072037
159	0x3cd1d39f	0.025613604
160	0x3cd14bb9	0.025548803
161	0xbd08afbd	-0.033370722
162	0x3ce7e953	0.0283095
163	0x3c965a7f	0.018353699
164	0x3c2df2c7	0.010616965
165	0x3b9b87ae	0.004746399
166	0xbcb0b60d	-0.021571184
167	0x3c88d2a2	0.016702
168	0xbbdb8479	-0.0066991416
169	0xbce16d04	-0.027517803
170	0xbcd136a7	-0.025538756
171	0x3b27f1f3	0.002562639
172	0xbd132935	-0.03592797
173	0x3c4412d6	0.011967381
174	0x3d28a734	0.041175082
175	0x3cd283de	0.025697645
176	0x3bfeb0b9	0.007772532
177	0xbba10b82	-0.004914702
178	0xbd1a2982	-0.03763724
179	0x3cfbc0a4	0.030731507
180	0xbd233888	-0.039848834
181	0x391cf1ce	0.00014967399
182	0xbcad2bc6	-0.021139037
183	0xbbf8deda	-0.0075949254
184	0xbad51182	-0.0016255828
185	0x3d2b5a32	0.041834064
186	0x3d3147a7	0.043281224
187	0xbd244660	-0.040106177
188	0x3c52316f	0.012829169
189	0xbd0d87cc	-0.034553334
190	0xbd1c55d4	-0.03816779
191	0xbd0f674c	-0.03501062
192	0x3d0ef3b3	0.03490038
193	0xbc8b7abd	-0.0170263
194	0x3cff7268	0.031182483
195	0x3d0d3d9f	0.034482595
196	0x3c62e0bc	0.013847526
197	0x3c910c7c	0.017706148
198	0xbd28d92c	-0.041222736
199	0x3af5e1c3	0.0018759299
200	0x3c0ac084	0.008468751
201	0xbd14e8ce	-0.036354832
202	0x3c887757	0.016658468
203	0x3d0dc5d4	0.03461249
204	0x3d1f16ce	0.038840108
205	0x3cc0fccf	0.023558049
206	0x3ceeca2a	0.029149134
207	0xbc4a051b	-0.012330319
208	0x3cafc808	0.021457687
209	0xbd0fd483	-0.035114776
210	0xbd0c6407	-0.03427508
211	0xbcc984a5	-0.024599383
212	0x3c95606c	0.018234454
213	0xbd170abe	-0.03687548
214	0xbaca782a	-0.0015447189
215	0x3b6144fa	0.0034373389
216	0xbc8c245b	-0.01710718
217	0x3c7aff85	0.01531971
218	0x3d0e086d	0.034676004
219	0x3b9aa294	0.004719088
220	0x3cb9d77e	0.022685762
221	0xbc97565e	-0.0184738
222	0xbce7bae3	-0.028287357
223	0x3d135a28	0.03597465
224	0xbce5b618	-0.02804093
225	0x3c78f13c	0.0151942335
226	0x3d152345	0.03641059
227	0xbd2daf9c	-0.042403802
228	0xbd265423	-0.040607583
229	0x3ce66f1f	0.028129159
230	0x3d19a514	0.037510946
231	0x3b8af647	0.0042407843
232	0xbbb854a3	-0.005625324
233	0xbd1191a5	-0.035539288
234	0xbd1c0097	-0.0380865
235	0xbbd55904	-0.0065108556
236	0xbcdc6b33	-0.026906585
237	0xbc8d7482	-0.01726747
238	0xbd31f82d	-0.04344957
239	0x3d0a9a93	0.03383882
240	0xbc48fef7	-0.01226782
241	0xbcf26ced	-0.029592955
242	0xbce36a11	-0.027760537
243	0x3d0a8dc7	0.033826616
244	0xbd026026	-0.031829976
245	0xbccecac6	-0.025243174
246	0xba16ff0d	-0.00057600514
247	0x3c16805f	0.0091858795
248	0x3c902cc1	0.017599465
249	0x3c3a5cd3	0.01137467
250	0x3ce21f3b	0.027602782
251	0xbd2106a2	-0.039312966
252	0x3d293d95	0.041318495
253	0x3d135321	0.03596795
254	0x3d03a709	0.03214172
255	0x3cfd9157	0.030953093

linear3.weight f4 [128, 256]
0	0xbc341900	-0.010992289
1	0x3c9002a0	0.017579377
2	0x3ce61714	0.028087176
3	0xbc8641fc	-0.016388886
4	0xbd1e5196	-0.038652025
5	0xbd0ada28	-0.033899456
6	0xbd22a404	-0.0397072
7	0x3d23a676	0.03995367
8	0x3ce827e4	0.028339334
9	0xb9d4bc00	-0.00040575862
10	0xbd20c626	-0.03925147
11	0xbc930d98	-0.017950818
12	0x3d6f4904	0.058419243
13	0x3a01b080	0.000494726
14	0x3d57f88a	0.05272726
15	0xbc0f47a0	-0.008745104
16	0x3c97d3c0	0.018533587
17	0x3d4bd8a4	0.04976715
18	0xba7f8400	-0.00097471476
19	0x3c5a4080	0.013321042
20	0x3c6e7a10	0.014555469
21	0xbd5f23f4	-0.054477647
22	0xbb9556a0	-0.0045574456
23	0x3c4be5d8	0.012444936
24	0x3d2ce31a	0.04220877
25	0xbc77b8d8	-0.015119754
26	0xbd00bee2	-0.03143204
27	0x3cdc1d08	0.026869312
28	0xbd0a149c	-0.03371106
29	0x3af2acc0	0.0018514618
30	0x3ca5ca8c	0.020238183
31	0x3ce46620	0.027880728
32	0xbd1278bc	-0.035759673
33	0x3d070e66	0.032972716
34	0x3d5a3fd4	0.053283527
35	0xbb945370	-0.004526548
36	0x3d4bc6ba	0.049750067
37	0xbc221658	-0.0098930225
38	0xbd63b0d0	-0.055588543
39	0x3d627130	0.055283725
40	0xbbc0d130	-0.005884312
41	0x3bccc6e0	0.0062492937
42	0xbcf3eae8	-0.029775098
43	0x3d05d688	0.032675296
44	0x3d49f2de	0.04930388
45	0xbba87660	-0.0051410645
46	0xbcd91c34	-0.026502706
47	0xbcacbc14	-0.021085776
48	0x3c992510	0.01869443
49	0x3d2ff24e	0.04295569
50	0x3d182b20	0.037150502
51	0xbcef963c	-0.029246442
52	0xbca4e234	-0.020127393
53	0x3c4170c0	0.011806667
54	0xbd11db6c	-0.035609648
55	0xbd12f8fa	-0.035881974
56	0xbcbe8b30	-0.02325973
57	0xbc3bb7a8	-0.011457361
58	0x3cbfea10	0.02342704
59	0xbd226e20	-0.039655805
60	0x3c434c60	0.011920065
61	0x3c711f00	0.014716864
62	0xbd4935a6	-0.04912343
63	0xbd255c64	-0.040371314
64	0x3d691d40	0.05691266
65	0xbcb9cc78	-0.022680506
66	0xbd093bae	-0.03350418
67	0x3d550752	0.052008934
68	0x3ce9a048	0.02851881
69	0xbbc9a840	-0.00615409
70	0xbbefcf20	-0.0073183924
71	0x3d048830	0.03235644
72	0xbc203bd8	-0.009779893
73	0x3d60a688	0.054846317
74	0x3c033718	0.008008741
75	0x3d73f70e	0.05956178
76	0xbcefcc9c	-0.02927237
77	0x3d451e7a	0.048124768
78	0x3d7282de	0.059206836
79	0xbb7b5c80	-0.0038354695
80	0x3d4a3374	0.049365476
81	0xbd23e22a	-0.04001061
82	0xbc9cb840	-0.019130826
83	0x3ca74b78	0.020421728
84	0xbd045cc8	-0.032315046
85	0xbd6f5a92	-0.058435984
86	0x3ce33158	0.02773349
87	0x3d3ed910	0.046593726
88	0x3b4af900	0.003097117
89	0xbd4c3d58	-0.04986319
90	0xbc186c78	-0.009303205
91	0x3c8bdf00	0.017074108
92	0xbd60e788	-0.054908305
93	0x3d13d12c	0.036088154
94	0xbcb4cdcc	-0.022070788
95	0x3cc35c04	0.023847587
96	0x3d7ad988	0.06124261
97	0xbc818cf0	-0.015814275
98	0x3d794a9c	0.06086217
99	0x3d6ad87a	0.057335354
100	0x3d1ff23e	0.03904938
101	0x3d15fdea	0.036619104
102	0xbd042eec	-0.03227131
103	0xbcedac90	-0.029012948
104	0xbcaf6c80	-0.021414042
105	0x3cb36d90	0.02190283
106	0x3d732b8c	0.0593677
107	0xbd189cb4	-0.03725882
108	0x3c2aa498	0.010415219
109	0x3bba7ad0	0.00569091
110	0x3d7a06c8	0.061041623
111	0x37036000	7.83056e-06
112	0x3d49a578	0.04923007
113	0x3d115be2	0.035488017
114	0xbcdf299c	-0.02724152
115	0x3d152800	0.0364151
116	0x39859e00	0.00025485456
117	0xbd5acf3a	-0.053420283
118	0xbd04cdae	-0.032422714
119	0xbcb4df98	-0.022079274
120	0x3d3d273a	0.046179987
121	0xbd1e0552	-0.038579293
122	0xbd20faba	-0.03930161
123	0xbd792b80	-0.0608325
124	0xbc83370c	-0.01601746
125	0xbd4465d6	-0.04794868
126	0x3d765284	0.060137287
127	0xbd31f370	-0.04344505
128	0xbc795118	-0.015217088
129	0xbd319b96	-0.04336127
130	0xbd5a52d2	-0.05330164
131	0xbcf79d28	-0.030226305
132	0x3d5c0808	0.053718597
133	0xbcd11c5c	-0.025526218
134	0x3d70498e	0.058663897
135	0x3cd20ac0	0.025639892
136	0xbd4e2e1a	-0.050336935
137	0x3cbfdc5c	0.023420505
138	0xbd73906a	-0.059463896
139	0xbc827f3c	-0.01592981
140	0xbd72995c	-0.059228286
141	0xbd516210	-0.05111891
142	0x3d1758b2	0.03694982
143	0xbc9ba3d4	-0.018999018
144	0xbc508110	-0.012726083
145	0xbb427560	-0.0029672012
146	0xbb7079c0	-0.0036693662
147	0xbd170bfc	-0.036876664
148	0xbc318c48	-0.010836668
149	0x3cc6808c	0.024231218
150	0x3cf24348	0.029573098
151	0xbd3f5326	-0.046710156
152	0xbd679bd8	-0.05654511
153	0xbd512e38	-0.05106947
154	0xbd3336ce	-0.043753438
155	0xbcbef33c	-0.023309343
156	0xbce538b4	-0.02798114
157	0x3cbe180c	0.023204826
158	0x3d1719dc	0.036889896
159	0x3c846cb8	0.016165122
160	0xbb5f41e0	-0.0034066364
161	0x3d75399c	0.059869394
162	0xbc9e2008	-0.019302383
163	0xbd5ed540	-0.05440259
164	0xbc75a860	-0.014993757
165	0x3d573f60	0.052550673
166	0x3cc05a38	0.02348052
167	0x3d62611c	0.055268392
168	0x3cc979d4	0.024594225
169	0xbc3b2108	-0.0114214495
170	0x3cc3b7a8	0.023891285
171	0xbb25e040	-0.0025310665
172	0x3cf0f430	0.029413313
173	0xbc99a9b8	-0.018757686
174	0xbc5e9db0	-0.0135874
175	0xbcbc7e34	-0.023009397
176	0xbc80e61c	-0.015734725
177	0x3d2ef3ec	0.04271309
178	0xbd0ca8a0	-0.0343405
179	0xbd44d164	-0.048051253
180	0x3cfa2b90	0.03053835
181	0xbd6e7b74	-0.058223203
182	0xbd2b04b0	-0.041752517
183	0xbc301b68	-0.010748722
184	0x3d312440	0.04324746
185	0x3d418e64	0.047254935
186	0x3d7ce698	0.06174335
187	0xbd356154	-0.044282272
188	0xbd26a414	-0.04068382
189	0x3d625812	0.05525977
190	0xbccf9ecc	-0.025344275
191	0x3d7c8c48	0.06165722
192	0xbd184302	-0.03717328
193	0x3d4a322e	0.04936426
194	0x3d460482	0.048344143
195	0x3d366426	0.044529103
196	0xbd21eb56	-0.039531074
197	0x3c98e6cc	0.01866474
198	0xbd40e1c4	-0.047090307
199	0xbc2e69b0	-0.010645315
200	0x3d06777e	0.0328288
201	0xbd22acb4	-0.039715484
202	0x3d115f48	0.035491258
203	0x3d12d980	0.035851955
204	0x3aa85b00	0.0012844503
205	0xbcb15dec	-0.02165123
206	0xbd237b9c	-0.039912805
207	0xbce4bc60	-0.027921855
208	0x3cfc1c3c	0.030775182
209	0xbc2b4ad8	-0.010454856
210	0xbd387d0c	-0.04504113
211	0x3d3c6f1e	0.046004407
212	0xbcf66874	-0.030079104
213	0x3cea4b5c	0.028600387
214	0xbc9d6614	-0.019213714
215	0xbcdb3d40	-0.026762605
216	0x3d4cf12e	0.050034694
217	0xbc4319e0	-0.011908025
218	0xbd4e0782	-0.05030013
219	0xbca50b5c	-0.020147018
220	0x3d082d5c	0.033246383
221	0x3d452fc0	0.04814124
222	0xbd06a976	-0.032876454
223	0xb9954f00	-0.00028478354
224	0xbcf146ac	-0.029452644
225	0x3d38d068	0.045120627
226	0x3c8d35cc	0.017237566
227	0x3d2ddffe	0.042449944
228	0x3d6e8c5a	0.05823932
229	0xba999580	-0.0011717528
230	0x3c2c9760	0.0105341375
231	0x3d5c2a54	0.053751305
232	0xbd692c60	-0.056927085
233	0xbc896bc8	-0.016775027
234	0xbc7622f0	-0.015022978
235	0xbc1a36e8	-0.009412505
236	0xbd5a5f1a	-0.053313352
237	0xbc493378	-0.0122803375
238	0x3b526820	0.003210552
239	0xbcd6c14c	-0.026215218
240	0x3c90618c	0.017624639
241	0xbc2e7cc0	-0.01064986
242	0x3d4aac84	0.04948093
243	0x3c2d77f8	0.010587685
244	0xbd7636e4	-0.06011094
245	0x3cbb25b0	0.02284512
246	0x3cc73674	0.024317957
247	0x3b399400	0.0028316975
248	0xbd60872a	-0.054816402
249	0xbd7bf782	-0.06151534
250	0xbd35d93a	-0.044396617
251	0xbd113f14	-0.035460547
252	0x3c904d20	0.017614901
253	0xbd32d838	-0.043663234
254	0x3d19a004	0.03750612
255	0x3ca09e24	0.019606657

linear3.bias f4 [128]
0	0x3d007606	0.031362556
1	0x3b320a00	0.0027166605
2	0xbcb6c624	-0.022311278
3	0x3d14fcb4	0.03637381
4	0xbd729910	-0.059228003
5	0x3c045028	0.008075751
6	0x3d7012f8	0.05861184
7	0xbd10f724	-0.03539194
8	0xbd2d7718	-0.042349905
9	0x3c541ef0	0.012946829
10	0x3c978da8	0.018500164
11	0xbd4cd840	-0.05001092
12	0xbc79df68	-0.015251018
13	0x3ae8f340	0.001777269
14	0xbd6d5e98	-0.05795154
15	0xba8aaf00	-0.0010580719
16	0xbd243cbe	-0.04009699
17	0xbd043234	-0.03227444
18	0x3d5a12ec	0.0532407
19	0x3c433b98	0.011916064
20	0xbd2876fa	-0.04112909
21	0xbb8ec2a0	-0.004356697
22	0xbd49947a	-0.049213864
23	0xbceae80c	-0.028675102
24	0xbd424aa6	-0.04743447
25	0x3d5571dc	0.052110538
26	0x3d5b1598	0.05348739
27	0x3c811424	0.015756674
28	0xbd5fb4bc	-0.05461572
29	0xbd72e972	-0.059304662
30	0x3d25998a	0.04042963
31	0x3d75db44	0.06002356
32	0xbd037048	-0.0320895
33	0x3be4f670	0.0069873855
34	0xbd04bfc8	-0.03240946
35	0x3c8f7d00	0.01751566
36	0xbd691a8a	-0.056910075
37	0x3c4ae5e8	0.0123839155
38	0x3d2330b2	0.03984136
39	0xbd7d5402	-0.061847694
40	0xbc827244	-0.015923627
41	0xbd6ac4d8	-0.05731663
42	0x3cdc3c90	0.026884347
43	0x3d1cc8a0	0.03827727
44	0xbd664f48	-0.056227952
45	0x3d0959a4	0.033532754
46	0x39f47400	0.00046625733
47	0xbd4aa668	-0.049475104
48	0x3cc5b21c	0.02413278
49	0x3bbfd410	0.0058541372
50	0xbc0a8c58	-0.008456312
51	0xbca020c0	-0.019546866
52	0xbd619b9a	-0.055080034
53	0x3ca7a2fc	0.02046346
54	0x3d458e1a	0.04823122
55	0xbd0ef22a	-0.034898914
56	0x3d67f666	0.05663147
57	0xbcebef40	-0.028800607
58	0xbc8c9168	-0.017159179
59	0xbd403c2a	-0.046932377
60	0xbd5f39c6	-0.054498456
61	0xbc34b540	-0.0110295415
62	0xbd5d5d12	-0.054043837
63	0x3c956708	0.018237606
64	0xbb9543a0	-0.0045551807
65	0xbcd1cb2c	-0.025609575
66	0xbaf1c4c0	-0.0018445477
67	0xbd388650	-0.045049965
68	0xbd514dea	-0.051099695
69	0x3c85de04	0.016341217
70	0x3b7a5e20	0.0038203076
71	0x3d3364e0	0.043797374
72	0xbcbbb04c	-0.022911213
73	0x3d3ee7f6	0.046607934
74	0x3bb24960	0.005440876
75	0xbd66c49c	-0.056339845
76	0x3c503f70	0.012710437
77	0xbd4b8852	-0.049690552
78	0x3d525670	0.051351964
79	0x3c284ed8	0.010272704
80	0xbd50ce70	-0.050978124
81	0xbd2a5668	-0.04158631
82	0xbd69f706	-0.057120346
83	0xbb0904e0	-0.0020907447
84	0x3cc7563c	0.024333112
85	0xbd25cac8	-0.04047659
86	0xbb8ef4e0	-0.0043626875
87	0xbb682c40	-0.0035426766
88	0xbd0dae38	-0.034589976
89	0xbd4f71da	-0.050645687
90	0x3d31cfd2	0.043411084
91	0xbd43bba8	-0.047786385
92	0xbc3de2d8	-0.011589728
93	0xbd0e46e6	-0.034735583
94	0xbd575e42	-0.052580126
95	0xbc45f410	-0.012082115
96	0x3c89f1ec	0.01683899
97	0x3cb3e154	0.02195803
98	0x3d2e902c	0.04261796
99	0x3ca6f8b8	0.02038227
100	0x3d69c7ba	0.05707524
101	0x3c2deaa0	0.010615021
102	0x3d7ceb20	0.06174767
103	0x3d4f9d50	0.050687134
104	0xbd7b8f52	-0.061415978
105	0x3ce112bc	0.027474754
106	0x3d063824	0.032768384
107	0x3d774876	0.06037184
108	0xbd2fbd94	-0.042905405
109	0x3d48cc18	0.049022764
110	0x3bf969c0	0.0076114833
111	0x3ccf2904	0.025288112
112	0xbb9a7b50	-0.004714407
113	0xbd389a76	-0.04506918
114	0x3bed31d0	0.007238604
115	0xbd2bd3b4	-0.041949943
116	0xbd64c82a	-0.055854954
117	0xbd033c06	-0.032039665
118	0xbbe82150	-0.0070840493
119	0xbd6cd2fa	-0.05781839
120	0x3cb319c0	0.021862864
121	0xbd061ab8	-0.032740325
122	0xbc768eb0	-0.015048668
123	0x3c0a7908	0.008451708
124	0xbc4ec780	-0.012620807
125	0x3cb9b000	0.022666931
126	0xbd441e22	-0.0478803
127	0x3d6557ee	0.05599206

output_layer.weight f4 [3, 128]
0	0xbc10a8f3	-0.008829343
1	0xbd2f220a	-0.04275707
2	0xbd4e733a	-0.050402857
3	0xbc45c3df	-0.012070625
4	0x3d015b0f	0.03158098
5	0x3d2987d4	0.0413893
6	0x3d1f1d7b	0.038846474
7	0x3d80ea37	0.06294673
8	0xbd71f2bb	-0.059069376
9	0x3d6391a5	0.05555882
10	0x3c85ed82	0.016348604
11	0xbbcbb54d	-0.006216681
12	0xbdaf5812	-0.0856172
13	0x3c9e89fc	0.019352905
14	0xbd2a5305	-0.04158308
15	0x3d9eb417	0.07749193
16	0xbd5a82b2	-0.053347297
17	0xbda7e854	-0.0819861
18	0x3d2bcfd5	0.04194625
19	0x3d98ded3	0.07464375
20	0xbd2467ae	-0.04013794
21	0xbcc5c719	-0.024142789
22	0xbcba6982	-0.022755388
23	0xbd7a701c	-0.061142072
24	0xbd6d3860	-0.05791509
25	0x3d39d745	0.045371313
26	0x3d2c6370	0.04208702
27	0x3c6e5f89	0.014549145
28	0x3bc384e8	0.0059667714
29	0xbd46e413	-0.048557352
30	0x3cec2a29	0.028828697
31	0x3d56783c	0.05236076
32	0x3d984d19	0.0743658
33	0x3d4a5cdd	0.049404968
34	0xbd8ed0bc	-0.06973407
35	0x3c94ace2	0.018148843
36	0xbcaf37a6	-0.02138884
37	0xbb7adcad	-0.0038278506
38	0x3d89e40d	0.0673295
39	0x3d82cd55	0.0638682
40	0x3c2abfa9	0.010421672
41	0xbdb43396	-0.08798902
42	0x3d6e7fff	0.058227535
43	0x3c09c447	0.008408613
44	0xbd8fe5a5	-0.07026223
45	0x3d0bb03f	0.03410363
46	0xbcf50c04	-0.029912956
47	0xbd1c18e7	-0.038109686
48	0x3d631a71	0.05544514
49	0x3d2c462c	0.04205911
50	0x3d5e8579	0.05432651
51	0x3d187081	0.037216667
52	0x3cae046f	0.021242348
53	0x3d2e62c7	0.04257467
54	0xbc763281	-0.0150266895
55	0xbc8bf74a	-0.01708569
56	0x3c343055	0.010997851
57	0xbd8e0fef	-0.06936633
58	0x3d7900ba	0.06079171
59	0xbda10530	-0.078623176
60	0x3d899020	0.06716943
61	0x3c903da0	0.01760751
62	0xbca9983f	-0.02070248
63	0x3d4cead3	0.050028633
64	0x3d1203d1	0.03564817
65	0x3d41cda1	0.047315244
66	0xbd524e7e	-0.051344387
67	0x3d208ba4	0.03919567
68	0x3d2af2a9	0.041735325
69	0x3cd8740c	0.026422523
70	0x3d556914	0.052102163
71	0x3d77d029	0.06050125
72	0xbc8f5a33	-0.017499065
73	0xbcdf5d95	-0.027266303
74	0x3d501de0	0.05080974
75	0x3ce0c8ae	0.027439442
76	0xbc0727d7	-0.008249245
77	0xbd462c61	-0.048382167
78	0xbd2b055b	-0.041753154
79	0x3b3bed3f	0.0028675345
80	0x3caa3424	0.020776816
81	0xbcf0ea9b	-0.029408744
82	0xbd3b3193	-0.045701575
83	0xbd544292	-0.0518213
84	0xbd91ce7e	-0.071194634
85	0xbd0a64e3	-0.03378762
86	0x3d6db930	0.058037937
87	0x3d744198	0.059632868
88	0xbd88ae57	-0.06673878
89	0x3d81e96f	0.06343352
90	0x3cfe5680	0.031047106
91	0xbcf6d315	-0.030129949
92	0xbd63cf6a	-0.055617727
93	0x3c881617	0.016612096
94	0xbd90364c	-0.07041606
95	0x3cb07201	0.021538736
96	0x3c7b4b4b	0.015337775
97	0x3d98abb4	0.07454625
98	0xbc111cc8	-0.00885696
99	0x3d828148	0.06372315
100	0x3cbc5312	0.02298883
101	0xbc531b49	-0.012884923
102	0xbca07890	-0.019588739
103	0xbd2dfd6b	-0.042478006
104	0x3cefe893	0.029285705
105	0x3d887e80	0.06664753
106	0x3d231eb3	0.0398242
107	0x3d54b782	0.05193282
108	0xbccf7ee1	-0.025329055
109	0xbcccf500	-0.025019169
110	0xbda9687d	-0.08271883
111	0x3d17ccbe	0.03706049
112	0xbd25c810	-0.040473998
113	0xbd91f0b0	-0.071259856
114	0xbd22dfd5	-0.039764244
115	0xbc8bd10f	-0.01706746
116	0x3d287592	0.04112775
117	0x3d3316d0	0.043722928
118	0xbc80fad6	-0.015744608
119	0xbd5e9a41	-0.054346327
120	0x3ca14528	0.019686297
121	0x3c8b1cf8	0.016981587
122	0x3daa4883	0.08314612
123	0xbca84344	-0.020539887
124	0xbd1b831b	-0.03796683
125	0xbc255cc2	-0.010092916
126	0xbd878752	-0.06617607
127	0x3ce45002	0.027870182
128	0x3da6db4e	0.08147298
129	0xbdb365a4	-0.08759621
130	0xbd95675e	-0.07295106
131	0xbda75705	-0.081708945
132	0x3d6ead32	0.05827064
133	0x3d874033	0.06604042
134	0xbb4589fa	-0.0030142055
135	0x3c7acd35	0.015307714
136	0xbc19f36f	-0.009396418
137	0x3d7a592f	0.06112021
138	0x3c48ed28	0.012263574
139	0x3d9cd4f4	0.07657805
140	0x3db25b06	0.087087676
141	0x3cd4355b	0.025904348
142	0x3d1f7e72	0.038938947
143	0x3d2999d9	0.041406486
144	0x3dac75b0	0.084208846
145	0xbd16677a	-0.036719777
146	0xbce1e4c8	-0.027574912
147	0x3d28a15e	0.041169517
148	0xbd67e7f5	-0.056617696
149	0x3b2cc82e	0.0026364434
150	0x3d3c9b70	0.046046674
151	0xbc430f5a	-0.011905516
152	0xbbe935ff	-0.0071170325
153	0x3cb48376	0.022035342
154	0xbdacfedf	-0.0844705
155	0xbd764bb7	-0.0601308
156	0xbd5b3af7	-0.05352303
157	0x3b38b194	0.0028182017
158	0xbd32fa19	-0.043695543
159	0x3b7d7cf5	0.0038679217
160	0x3d5a18ad	0.05324619
161	0x3d823dbf	0.063594334
162	0x3a88a986	0.0010426498
163	0x3d90174f	0.07035696
164	0xbd86737a	-0.06564994
165	0xbd9cca48	-0.076557696
166	0x3d167a0d	0.03673749
167	0x3cf4c0dd	0.02987712
168	0x3d21c517	0.0394946
169	0x3d9e713e	0.07736443
170	0x3b57990b	0.0032897617
171	0xbb9076d5	-0.004408697
172	0xbd7baabb	-0.06144212
173	0xbb25de78	-0.0025309604
174	0x3ce66cdc	0.02812808
175	0x3d51cba7	0.05121961
176	0x3d462689	0.048376594
177	0x3da56e93	0.08077731
178	0xbd7bc076	-0.061462842
179	0xbd02372b	-0.031790894
180	0x3ce6ad56	0.028158825
181	0x3d2e6a86	0.042582057
182	0x3c4a1f06	0.012336498
183	0xbc459ca1	-0.012061269
184	0xbcd2a068	-0.025711253
185	0x3d8db00c	0.06918344
186	0x3d9c38cb	0.0762802
187	0x3d60d733	0.05489273
188	0x3cad8ca0	0.02118522
189	0x3d8ddbb0	0.06926668
190	0xbce0ae08	-0.027426735
191	0x3c36da4b	0.011160444
192	0x3d0e0015	0.034668047
193	0x3cf48b25	0.029851506
194	0x3d542748	0.051795274
195	0xbd169ff2	-0.03677363
196	0xbcc7d61d	-0.02439409
197	0xbd7d40b0	-0.06182927
198	0x3d7c4c81	0.061596397
199	0x3da60918	0.08107203
200	0xbc63d7de	-0.013906447
201	0x3d81f9b6	0.06346457
202	0x3ced9a52	0.02900425
203	0x3d8eb6c1	0.06968451
204	0xbd80d5f6	-0.0629081
205	0xbb938ee2	-0.004503117
206	0xbd958763	-0.073012136
207	0x3d69c6d2	0.057074375
208	0xbd6419a6	-0.055688523
209	0xbd9c0416	-0.07617967
210	0x3d855047	0.06509452
211	0xbdb0f3e1	-0.08640266
212	0xbdac733c	-0.08420417
213	0xbc3700c9	-0.011169621
214	0xbccce567	-0.025011731
215	0xbd7f850e	-0.06238275
216	0x3c92f368	0.01793833
217	0x3d888c8d	0.06667433
218	0xbd5573e5	-0.05211248
219	0x3bfb872d	0.0076760263
220	0xbc8c6714	-0.017138995
221	0x3b9e350b	0.0048281006
222	0xbd77cd22	-0.060498364
223	0x3b1e584f	0.0024161523
224	0xbd915395	-0.0709602
225	0x3d12411b	0.03570662
226	0x3d369743	0.04457785
227	0x3d8d391f	0.068956606
228	0x3cc85a6e	0.024457183
229	0xbbb4a8c3	-0.005513282
230	0x3cff948c	0.031198762
231	0xbd84317f	-0.06454753
232	0xbd3aa4f3	-0.045567464
233	0xbb6f4903	-0.0036512024
234	0x3d46151d	0.04835998
235	0xbd903c3e	-0.0704274
236	0x3ca2223d	0.019791717
237	0x3db066a1	0.08613325
238	0xbd1670ab	-0.036728542
239	0x3ce1019a	0.027466584
240	0xbcb7e77a	-0.022449244
241	0xbdafd94c	-0.08586368
242	0xbda30ccd	-0.07961426
243	0xbd8d2c0d	-0.06893168
244	0xbda3135d	-0.07962678
245	0x3da28338	0.07935184
246	0x3cdd33b2	0.02700219
247	0x3d825690	0.06364167
248	0xbdaafaff	-0.08348655
249	0x3d352917	0.04422864
250	0x3d201736	0.039084636
251	0x3d5cf754	0.053946808
252	0xbd12afb9	-0.035812113
253	0xbd7a0d40	-0.061047792
254	0x3c549e79	0.012977236
255	0x3d01c082	0.03167773

output_layer.bias f4 [3]
0	0x3ce2fa4d	0.027707243
1	0x3c353092	0.011058943
2	0x3d1d9241	0.038469557
